…
ensorflow-1.15.2/python3.7/tensorflow_core/python/ops/resource_variable_ops.py:1630: calling BaseResourceVariable.__init__ (from tensorflow.python.ops.resource_variable_ops) with constraint is deprecated and will be removed in a future version.\n","Instructions for updating:\n","If using Keras pass *_constraint arguments to layers.\n","Model: \"model_1\"\n","_________________________________________________________________\n","Layer (type)                 Output Shape              Param #   \n","=================================================================\n","input_1 (InputLayer)         (None, 10, 10, 10)        0         \n","_________________________________________________________________\n","conv2d_1 (Conv2D)            (None, 32, 8, 8)          2912      \n","_________________________________________________________________\n","conv2d_2 (Conv2D)            (None, 64, 7, 7)          8256      \n","_________________________________________________________________\n","conv2d_3 (Conv2D)            (None, 64, 7, 7)          4160      \n","_________________________________________________________________\n","flatten_1 (Flatten)          (None, 3136)              0         \n","_________________________________________________________________\n","dense_1 (Dense)              (None, 3136)              9837632   \n","_________________________________________________________________\n","dense_2 (Dense)              (None, 3)                 9411      \n","=================================================================\n","Total params: 9,862,371\n","Trainable params: 9,862,371\n","Non-trainable params: 0\n","_________________________________________________________________\n","WARNING:tensorflow:From /tensorflow-1.15.2/python3.7/keras/backend/tensorflow_backend.py:422: The name tf.global_variables is deprecated. Please use tf.compat.v1
…
