…
"output_type":"stream","text":["Model: \"model\"\n","__________________________________________________________________________________________________\n","Layer (type)                    Output Shape         Param #     Connected to                     \n","==================================================================================================\n","input_1 (InputLayer)            [(None, 10, 10, 10)] 0                                            \n","__________________________________________________________________________________________________\n","conv2d (Conv2D)                 (None, 32, 8, 8)     2912        input_1[0][0]                    \n","__________________________________________________________________________________________________\n","activation (Activation)         (None, 32, 8, 8)     0           conv2d[0][0]                     \n","__________________________________________________________________________________________________\n","conv2d_1 (Conv2D)               (None, 64, 7, 7)     8256        activation[0][0]                 \n","__________________________________________________________________________________________________\n","activation_1 (Activation)       (None, 64, 7, 7)     0           conv2d_1[0][0]                   \n","__________________________________________________________________________________________________\n","conv2d_2 (Conv2D)               (None, 64, 7, 7)     4160        activation_1[0][0]               \n","__________________________________________________________________________________________________\n","activation_2 (Activation)       (None, 64, 7, 7)     0           conv2d_2[0][0]                   \n","__________________________________________________________________________________________________\n","flatten (Flatten)               (None, 3136)         0           activation_2[0][0]               \n","__________________________________________________________________________________________________\n","dense_2 (Dense)                 (None, 3136)         9837632     flatten[0][0]                    \n","__________________________________________________________________________________________________\n","dense (Dense)                   (None, 3136)         9837632     flatten[0][0]                    \n","__________________________________________________________________________________________________\n","dense_3 (Dense)                 (None, 1)            3137        dense_2[0][0]                    \n","__________________________________________________________________________________________________\n","dense_1 (Dense)                 (None, 3)            9411        dense[0][0]                      \n","__________________________________________________________________________________________________\n","lambda_1 (Lambda)               (None, 3)            0           dense_3[0][0]                    \n","__________________________________________________________________________________________________\n","lambda (Lambda)                 (None, 3)            0           dense_1[0][0]                    \n","__________________________________________________________________________________________________\n","add (Add)                       (None, 3)            0           lambda_1[0][0]                   \n","                                                                 lambda[0][0]                     \n","==================================================================================================\n","Total params: 19,703,140\n","Trainable params: 19,703,140\n","Non-trainable params: 0\n","_______________________________________________________
…
