…
 batch_size = BATCH_SIZE, nb_epoch = NB_EPOCH,\n","             gamma = GAMMA, n_steps = N_STEPS, policy = POLICY)"],"execution_count":null,"outputs":[{"output_type":"stream","name":"stdout","text":["Model: \"model\"\n","_________________________________________________________________\n"," Layer (type)                Output Shape              Param #   \n","=================================================================\n"," input_1 (InputLayer)        [(None, 10, 10, 10)]      0         \n","                                                                 \n"," block1_conv1 (Conv2D)       (None, 16, 10, 10)        1456      \n","                                                                 \n"," dropout (Dropout)           (None, 16, 10, 10)        0         \n","                                                                 \n"," block1_conv2 (Conv2D)       (None, 16, 10, 10)        2320      \n","                                                                 \n"," dropout_1 (Dropout)         (None, 16, 10, 10)        0         \n","                                                                 \n"," block1_pool (MaxPooling2D)  (None, 16, 5, 5)          0         \n","                                                                 \n"," block2_conv1 (Conv2D)       (None, 32, 5, 5)          4640      \n","                                                                 \n"," dropout_2 (Dropout)         (None, 32, 5, 5)          0         \n","                                                                 \n"," block2_conv2 (Conv2D)       (None, 32, 5, 5)          9248      \n","                                                                 \n"," dropout_3 (Dropout)         (None, 32, 5, 5)          0         \n","                                                                 \n"," block2_pool (MaxPooling2D)  (None, 32, 2, 2)          0         \n","                                                                 \n"," block3_conv1 (Conv2D)       (None, 64, 2, 2)          18496     \n","                                                                 \n"," dropout_4 (Dropout)         (None, 64, 2, 2)          0         \n","                                                                 \n"," block3_conv2 (Conv2D)       (None, 64, 2, 2)          36928     \n","                                                                 \n"," dropout_5 (Dropout)         (None, 64, 2, 2)          0         \n","                                                                 \n"," block3_conv3 (Conv2D)       (None, 64, 2, 2)          36928     \n","                                                                 \n"," dropout_6 (Dropout)         (None, 64, 2, 2)          0         \n","                                                                 \n"," block3_pool (MaxPooling2D)  (None, 64, 1, 1)          0         \n","                                                                 \n"," flatten (Flatten)           (None, 64)                0         \n","                                                                 \n"," dense (Dense)               (None, 3136)              203840    \n","                                                                 \n"," dropout_7 (Dropout)         (None, 3136)              0         \n","                                                                 \n"," dense_1 (Dense)             (None, 3)                 9411      \n","                                                                 \n","=================================================================\n","Total params: 323,267\n","Trainable params: 323,267\n","Non-trainable params: 0\n","_________________________________________________________________\n","Epoch: 010/10000 | Mean size 10: 3.2 | Longest 10: 005 | Mean steps 10: 17.2 | Wins: 1 | 10.0%\
…
