…
"AGENT.train(GAME, batch_size = BATCH_SIZE, nb_epoch = NB_EPOCH,\n","             gamma = GAMMA, n_steps = N_STEPS, policy = POLICY)"],"execution_count":19,"outputs":[{"output_type":"stream","text":["Model: \"model\"\n","_________________________________________________________________\n","Layer (type)                 Output Shape              Param #   \n","=================================================================\n","input_1 (InputLayer)         [(None, 10, 10, 10)]      0         \n","_________________________________________________________________\n","conv2d (Conv2D)              (None, 32, 8, 8)          2912      \n","_________________________________________________________________\n","activation (Activation)      (None, 32, 8, 8)          0         \n","_________________________________________________________________\n","conv2d_1 (Conv2D)            (None, 64, 7, 7)          8256      \n","_________________________________________________________________\n","activation_1 (Activation)    (None, 64, 7, 7)          0         \n","_________________________________________________________________\n","conv2d_2 (Conv2D)            (None, 64, 7, 7)          4160      \n","_________________________________________________________________\n","activation_2 (Activation)    (None, 64, 7, 7)          0         \n","_________________________________________________________________\n","flatten (Flatten)            (None, 3136)              0         \n","_________________________________________________________________\n","dense (Dense)                (None, 3136)              9837632   \n","_________________________________________________________________\n","dense_1 (Dense)              (None, 3)                 9411      \n","=================================================================\n","Total params: 9,862,371\n","Trainable params: 9,862,371\n","Non-trainable params: 0\n","_________________________________________________________________\n","Epoch: 010/10000 | Mean size 10: 3.1 | Longest 10: 004 | Mean steps 10: 26.7 | Wins: 1 | 10.0%\n","Epoch: 020/10000 | Mean size 10: 3.0 | Longest 10: 003 | Mean 
…
